best_model_mfcc_attention.pth (torch, 585322 bytes, 37 tensors)

conv_blocks.0.weight f4 [64, 1, 3, 3]
000000 2e 98 64 3e 61 1f 29 be 8a 25 f0 3d 17 c1 a1 3e
       0.22323677 -0.16515876 0.1172591 0.31592628
000010 8a d8 30 bd c8 bc 27 3e 44 6c d9 3e 86 a8 00 3e
       -0.043175258 0.16380608 0.42465413 0.12564287
000020 91 d6 77 be 75 73 b3 be 7f 5a 68 be 12 f9 91 be
       -0.24202944 -0.35049024 -0.22690772 -0.28510338
000030 6d 14 b3 3d df 24 33 3e 3d b4 69 be 2d 98 a4 3e
       0.0874413 0.17494534 -0.22822662 0.3214735
000040 a6 c7 14 3e 05 53 97 3e 46 78 69 3e 03 df 9b 3c
       0.14529285 0.29555526 0.22799787 0.019027239
000050 ba f8 23 bd 56 58 cd 3d d9 bf 28 3e cd 1c 81 3d
       -0.040032126 0.10026614 0.16479434 0.063043214
000060 f7 7d 5d 3e 8a 11 94 bd fb 26 3f 3e a6 65 f0 bd
       0.21630083 -0.07229908 0.18667214 -0.11738138
000070 91 76 1d bd 25 3f 9d be 37 ae 8a be 4f f6 80 be
       -0.03844315 -0.30712238 -0.2708604 -0.2518792
000080 7b 09 2b 3c af 3e 13 3e 03 69 45 be 47 d4 ba be
       0.010439272 0.1437938 -0.1927834 -0.3649008
000090 63 f3 2f be 55 ca df 3d 54 40 50 be f1 b4 0e 3d
       -0.17182688 0.10927264 -0.20337039 0.034840528
0000a0 71 14 12 be 5c c7 41 be c4 6a 44 3e f5 f2 4e 3e
       -0.1426561 -0.18923706 0.19181353 0.20209868
0000b0 e0 8f 30 3e 95 ec 86 3e 64 39 9a 3c c9 c9 42 3d
       0.17242384 0.26352373 0.018826194 0.04755572
0000c0 11 b5 10 be 81 95 84 3e 61 73 27 3e 16 27 af bd
       -0.14131571 0.25895312 0.16352607 -0.08552377
0000d0 cd 75 02 be 05 0c f6 bd 78 e3 a1 3e 4b b1 24 be
       -0.1274025 -0.12014011 0.31618857 -0.16083257
0000e0 48 43 f2 3d 4b 07 6f 3e dc da 15 3d 9f 54 c8 bd
       0.11829239 0.23342626 0.036585674 -0.09781765
0000f0 72 44 40 3e 10 a1 fd bc 3b fe b9 3e 05 90 74 be
       0.1877611 -0.03096059 0.36326775 -0.23883064
000100 37 86 e9 3d 95 65 8d be 19 d3 89 bd 71 07 0a 3e
       0.114025526 -0.27616563 -0.06729717 0.13479401
000110 2b f2 7a bd 0b b2 bd 3e 32 0a 18 be cc 7e 43 3e
       -0.061266106 0.37049899 -0.14847639 0.19091338
000120 2a 10 62 3e 39 15 ad 3e fc 98 87 3d 6c 16 e1 3d
       0.22076479 0.33805254 0.06620976 0.10990605
000130 98 16 5e ba 0b 9d 8b 3e d1 f2 f5 3d 93 de c6 3d
       -0.00084719947 0.27268252 0.12009204 0.097104214
000140 64 df 98 bd 6a 16 3e be f7 b6 2a 3e 06 be b7 be
       -0.074644834 -0.18563238 0.16671358 -0.35887164
000150 1c e0 ba 3e 48 6f 58 3e 41 57 b8 3e d2 cd 6d bd
       0.36499107 0.211362 0.3600407 -0.058057614
000160 4b 96 0d 3e dd e6 1f 3e 03 6d b4 3c 31 4c d5 bc
       0.13826863 0.15615411 0.022024637 -0.026037307
000170 f7 33 25 be 00 81 64 3e e9 07 84 bd 65 a3 80 be
       -0.16133104 0.22314835 -0.06446821 -0.2512466
000180 a6 30 13 be 96 c9 6b 3e 64 81 f0 bd dc 98 4c 3e
       -0.14374027 0.23026118 -0.11743429 0.19980186
000190 af 09 c6 bd 43 5f d9 bd 2f fa 9a 3e 36 31 86 3d
       -0.09669816 -0.10613873 0.30269 0.06552355
0001a0 21 87 e4 3d 78 78 0d be 2d 94 90 3e ae de 5d 3e
       0.11158586 -0.13815486 0.2823805 0.21666977
0001b0 ce fb c6 bd 3d 23 00 be f1 cd 9c be 17 ef 1e be
       -0.09715997 -0.12513442 -0.3062587 -0.15520893
0001c0 dc b6 93 3e 35 12 44 bd c4 c1 a9 3e fd 40 48 3e
       0.28850448 -0.047868926 0.33155644 0.19556041
0001d0 b2 64 62 be 20 64 10 3e e2 cf 3f be 40 35 66 3e
       -0.22108725 0.14100695 -0.18731645 0.22481251
0001e0 18 14 92 be 8f e5 c1 bd e5 05 a4 3e 00 bf da bd
       -0.28530955 -0.09467613 0.32035747 -0.106809616
0001f0 c0 d5 d3 bd 53 98 97 3e e7 5f 3a be 76 a4 87 be
       -0.10343504 0.29608402 -0.18200646 -0.2649266
000200 a2 6d b7 be dd 2e f2 3d 07 f4 58 be 0f 03 35 3e
       -0.3582583 0.11825345 -0.21186839 0.17676948
000210 38 dc 1d be ed 18 a8 3e ab 25 8b 3e 29 e1 1e be
       -0.15416038 0.32831517 0.27177176 -0.1551558
000220 e7 9e 2e be 79 ee 01 bb fc 6e 05 3e 44 d6 51 3e
       -0.17052804 -0.0019825979 0.13030618 0.20491892
000230 98 e8 7a bd e3 f7 57 3d c0 e0 e2 3b 3b 65 21 3c
       -0.061256975 0.052726638 0.006923765 0.009850795
000240 b9 6e 9c 3e 33 84 1f 3c cb ae 86 bd fc 5f 97 bd
       0.30553225 0.009736109 -0.06576308 -0.073913544
000250 3b 27 5f 39 ae 41 41 3e de a5 83 3d 6b a8 7c 3e
       0.00021281552 0.18872711 0.06428121 0.24673621
000260 db da 15 3d 3f b5 a1 3d 3a c9 94 3e 43 6b 98 3e
       0.03658567 0.07895898 0.29059774 0.29769334
000270 e9 f3 d8 bd ed 08 98 be e3 91 2a 3e a6 de 1f 3d
       -0.10593397 -0.2969431 0.16657214 0.039030693
000280 77 af f3 3d 99 3a 33 3e c8 99 f8 bd 4b 03 12 bd
       0.11898702 0.17502822 -0.121387064 -0.03564767
000290 ce a9 72 be 33 80 8b 3e 95 25 d4 bd 2f 93 b3 be
       -0.23697588 0.27246246 -0.10358731 -0.3507323
0002a0 a4 d8 2f be ee 65 4f be 77 6d 1d be 9a 6e 00 be
       -0.17172486 -0.20253727 -0.15373789 -0.12542191
0002b0 c5 22 42 3d b2 72 ad be f2 f1 80 be f0 bd 2d be
       0.04739644 -0.33876568 -0.2518459 -0.16966987
0002c0 64 47 f3 3c e8 18 ab 3e 4c 86 bb 3c 7d cb bb 3e
       0.029697128 0.3341744 0.022891186 0.36678687
0002d0 b3 62 5c 3e 7e 0c c0 bd 19 77 a1 3e 1b 01 94 3d
       0.21522026 -0.09377383 0.31536177 0.07226773
0002e0 42 50 03 be fc 20 d5 3d f2 35 8f be c1 96 90 3e
       -0.12823585 0.10406682 -0.27970845 0.28240016
0002f0 ef 9b 7f be 8b 10 3b bd 50 f3 1e 3d 38 b8 3c bd
       -0.24961828 -0.045670073 0.03880626 -0.046074122
000300 0e b5 19 3d c1 97 cc bb 38 43 47 3e 54 28 34 3e
       0.037526183 -0.0062436764 0.19459236 0.17593509
000310 df 8f 9a 3e 25 a5 35 3e cc 99 c8 bd 8c a2 cb bc
       0.3018789 0.17738779 -0.097949594 -0.024857782
000320 bc e5 e1 3d c7 03 86 3e db 68 e5 3b 72 63 60 3e
       0.110301465 0.26174757 0.007001025 0.21912935
000330 b2 7d 17 be f5 3c 51 3d f1 31 a0 be 33 b5 07 bc
       -0.14794043 0.051083524 -0.31288102 -0.008282947
000340 f8 0a 9c 3d 49 3b 54 be df d0 53 3d f3 99 ac 3e
       0.076192796 -0.2072574 0.051712867 0.33711204
000350 c9 ee 7d be 51 5e 94 3e a5 10 47 be 09 a9 44 3e
       -0.2479812 0.28978208 -0.19439943 0.19205107
000360 e8 48 87 bb f9 31 de bc 67 d9 dd be 71 a4 bd bd
       -0.004128564 -0.027123438 -0.43329927 -0.0925988
000370 4c ff d6 bd 9d 12 54 be 0d b6 36 3c b4 61 08 be
       -0.10497913 -0.20710225 0.011151803 -0.13318521
000380 6c c8 f3 3d 26 1a 97 3d 71 f4 0e be bd 97 5a be
       0.11903462 0.07378034 -0.13960434 -0.21346946
000390 19 88 a9 3e 63 53 9f 3d 5f af 93 be 0e f8 9e 3e
       0.33111647 0.07779577 -0.28844735 0.31048626
0003a0 c4 23 5f be 9d c2 eb 3c 38 73 a5 3e 0b fd 3e 3e
       -0.21790987 0.028779322 0.32314467 0.18651216
0003b0 0a 02 40 3e c2 2a 7e bd 88 57 23 3e 05 67 5a bd
       0.18750778 -0.062052496 0.1595136 -0.053320903
0003c0 3f c6 14 3e 5b 8e 5d bd 5b 32 5a 3d 21 9d a6 3e
       0.1452875 -0.05409084 0.05327068 0.32541755
0003d0 f7 49 f0 3d e7 9f 62 3d 15 70 9b 3e e3 c6 d4 3d
       0.11732858 0.055328276 0.3035895 0.10389497
0003e0 d6 24 c1 3e 1a f8 72 be dd 4d b6 3d cf e5 4b be
       0.37723416 -0.23727456 0.0890157 -0.19911884
0003f0 41 b0 cc 3b 03 f3 3c 3e 38 4c 14 3b c2 e3 74 3e
       0.006246597 0.18452077 0.0022628438 0.23915008

conv_blocks.0.bias f4 [64]
000000 e3 7a 46 3e 94 0f b8 3d 0a 27 b7 3d 3a 79 95 3e
       0.19382815 0.08987346 0.08942993 0.2919405
000010 29 b1 f4 bd 7c 48 96 3d 90 bd 94 be 91 36 9a 3e
       -0.11947853 0.07338044 -0.29050875 0.30119756
000020 96 09 88 3e 4c e2 21 3d 21 ea af 3d 3a 36 fd 3d
       0.26569813 0.039522454 0.085895784 0.123638585
000030 b9 a1 57 be a5 68 58 3e 1e bb 89 3e 73 f5 3b be
       -0.21057786 0.21133669 0.26900572 -0.1835535
000040 1e ef a8 3e 33 52 84 3e 52 41 34 3e a3 ff 54 3e
       0.32994932 0.25843963 0.17603043 0.20800643
000050 a2 2b 84 3d ae c9 4c bd 18 0c 76 bd 7f ff 10 be
       0.06453635 -0.049997024 -0.060070127 -0.14159964
000060 94 dd 02 be 35 92 3c be a4 50 8f 3e db dc 25 be
       -0.12779838 -0.18415149 0.2799121 -0.16197531
000070 7d bd 9c 3e 62 1e ac bd 22 ec 11 be 1b b2 a0 bd
       0.30613318 -0.084042326 -0.14250234 -0.07846471
000080 64 8c 8c be c6 fc 95 be d2 83 bd 3d d4 86 53 3e
       -0.2745086 -0.29294413 0.09253658 0.20656902
000090 c9 75 6c 3e 1d b4 ae be 7a d5 38 3e 1d d9 ec 3d
       0.23091806 -0.3412179 0.18050185 0.115648486
0000a0 6e f9 5c be 1e 7a 72 3e 3b 38 8a be a3 19 fd bc
       -0.21579525 0.23679397 -0.26996025 -0.030896014
0000b0 3e 6d a1 3e ee e7 8d be 86 04 a7 3e 64 78 2e 3e
       0.31528658 -0.2771601 0.3262064 0.17038113
0000c0 37 12 a7 be 5d d7 98 3e d5 b4 4a 3e a3 98 27 3e
       -0.32631084 0.2985181 0.19795544 0.1636682
0000d0 9d 75 a5 be 3d 21 09 3d 38 f4 ef bd 9b 80 93 bd
       -0.32316294 0.033478964 -0.11716503 -0.07202264
0000e0 37 bc 1b 3b 07 c1 31 be 1f fc 98 be ce 08 b2 3e
       0.0023763308 -0.1735879 -0.29879853 0.34772342
0000f0 2d 27 80 3e 67 47 92 be a3 9d b2 be f8 d0 6c 3e
       0.2502989 -0.285701 -0.34885892 0.2312659

conv_blocks.1.weight f4 [64]
000000 32 81 70 3f 02 4e 86 3f 75 ed 87 3f d2 90 65 3f
       0.93947136 1.0492556 1.0619341 0.89674103
000010 31 65 83 3f 69 bc 83 3f 86 3b 81 3f 0e 09 87 3f
       1.0265256 1.0291873 1.009629 1.0549638
000020 a5 db 8a 3f 40 c7 82 3f 16 83 91 3f 98 2b 84 3f
       1.084828 1.0217056 1.1368129 1.0325804
000030 3c 7b 89 3f 03 73 6d 3f ca 9d 5a 3f 00 49 81 3f
       1.0740733 0.9275362 0.85397017 1.0100403
000040 b7 e6 88 3f a2 15 86 3f d9 48 78 3f ef e4 6a 3f
       1.0695409 1.0475352 0.96986157 0.91755575
000050 32 1f 8a 3f 0e fe 86 3f 90 44 7f 3f 1b d7 86 3f
       1.079077 1.0546281 0.99713993 1.0534395
000060 c8 3f 5b 3f 62 fe 84 3f 81 bc 8a 3f f6 8f 8e 3f
       0.856442 1.0390131 1.0838777 1.1137683
000070 cd 2c 86 3f 0e 15 85 3f ea a6 60 3f b5 d6 87 3f
       1.0482422 1.039705 0.8775469 1.0612398
000080 e3 c1 86 3f f6 3d 6a 3f 6a 90 8a 3f bc 22 76 3f
       1.052792 0.91500795 1.0825322 0.9614675
000090 bd 93 79 3f f8 73 7b 3f 15 c9 85 3f 77 87 6f 3f
       0.97491056 0.9822383 1.045199 0.9356608
0000a0 c8 19 8c 3f f0 24 5d 3f 6e 59 76 3f e8 09 7d 3f
       1.0945368 0.8638449 0.9623021 0.9884324
0000b0 71 37 6d 3f 72 89 81 3f 57 13 87 3f 3b b4 88 3f
       0.9266272 1.012007 1.0552777 1.0680002
0000c0 c8 27 7a 3f bb 4e 82 3f 64 31 6e 3f 55 ae 53 3f
       0.9771695 1.0180277 0.93044114 0.82687885
0000d0 09 e2 85 3f 38 b9 78 3f 11 3f 77 3f 05 c6 77 3f
       1.0459605 0.9715762 0.96580607 0.9678653
0000e0 2d f7 88 3f a0 c3 73 3f dc b9 6c 3f 6e 72 6f 3f
       1.0700432 0.95220375 0.924711 0.9353398
0000f0 17 18 89 3f 45 aa 80 3f c4 51 6f 3f 15 cd 7c 3f
       1.0710477 1.0051962 0.9348414 0.9875043

conv_blocks.1.bias f4 [64]
000000 61 a7 e5 3b 20 ca 84 3b 68 b0 26 bd ec 7d 5e 3d
       0.0070084785 0.0040524155 -0.040695578 0.054319307
000010 be b6 39 bd b2 2e 32 3b 4f 5e d5 bd fc 68 8f bd
       -0.045340292 0.0027188477 -0.104183786 -0.07002446
000020 dd cb 1a bd ba 85 2e 3d 38 d2 fc 3a 3e 69 a5 bc
       -0.037792075 0.042608 0.0019288724 -0.020191785
000030 31 85 f7 3c f5 49 cf 3c 82 13 8d 3d f8 62 5d bd
       0.030214878 0.02530382 0.068884864 -0.054049462
000040 93 98 1c bd 5b c2 27 bd b8 7d ff bc 20 81 79 3c
       -0.038231444 -0.040956836 -0.031187877 0.01522854
000050 bc 8a 1e 3d 46 23 81 3c 03 3c 96 bc 05 d8 04 3d
       0.038706526 0.01576389 -0.018339163 0.032432575
000060 ac 49 d0 3c 0a a9 07 3e 9f e8 85 bb ec 83 df bc
       0.025425754 0.13248077 -0.0040865685 -0.027284585
000070 a5 d3 09 bb 2f b4 66 bc ec ab 57 3d 95 58 0f bc
       -0.002103069 -0.014081045 0.05265419 -0.008749147
000080 10 b0 80 3d 11 8d 23 bd 5c 87 30 bd a2 75 2d bd
       0.06283581 -0.039929453 -0.04309784 -0.04234851
000090 35 37 3e 3b 1d c4 85 bd 7f f5 5e bc 95 bc ba 3d
       0.0029024605 -0.06531546 -0.0136083355 0.091180004
0000a0 c5 40 89 bc 51 d3 17 3e 2a 48 dc bd a1 61 b9 bd
       -0.016754517 0.14826705 -0.10755952 -0.09051824
0000b0 f5 80 d6 3d d2 46 d4 bc 6e a7 1d bc 0e bb 74 3d
       0.10473815 -0.025912676 -0.009622438 0.0597487
0000c0 5e 89 9f bc 9a 44 94 3d 97 40 f3 bd 8a 73 03 bc
       -0.019474681 0.07239647 -0.11877554 -0.008023152
0000d0 a0 a1 40 3d 9f 3f 20 bd fc 0a d1 bc 54 28 bb bc
       0.047029138 -0.039123174 -0.025517933 -0.022846378
0000e0 9a 49 c6 3a df d5 c2 3b c5 4a 56 3d ec 1f 08 3c
       0.0015128136 0.0059459056 0.0523174 0.008308392
0000f0 5c bc 64 3c e0 4a c5 bd 95 a9 b3 bd 2e b5 d3 bb
       0.013960924 -0.09633422 -0.087725796 -0.0064608073

conv_blocks.1.running_mean f4 [64]
000000 72 a5 46 3e be 65 8b 3d 22 43 df 3d 9e 70 6b 3e
       0.1939905 0.06806515 0.109014764 0.22992179
000010 ec 3c 10 be 71 12 a8 3d b7 ae 82 be 7c b8 90 3e
       -0.1408574 0.082066424 -0.25523922 0.2826575
000020 29 6c 95 3e d9 45 66 3d 7b 54 18 3d 73 8c 13 3e
       0.29184082 0.056218956 0.03718994 0.14409046
000030 b6 83 88 be 69 56 96 3e 32 0a 8f 3e 00 86 3e be
       -0.26662987 0.293628 0.27937466 -0.18605804
000040 03 e3 b0 3e 0d 7e a4 3e 94 90 d5 3d fd 8c 5b 3e
       0.34548196 0.3212742 0.10427967 0.21440502
000050 42 86 ae 3d 3e ac 9f bc 81 d3 73 bd a9 2f 2c be
       0.085217014 -0.019491311 -0.059527878 -0.16815056
000060 a6 e2 36 be c8 e3 6f be 92 60 98 3e eb 59 14 be
       -0.17859897 -0.23426735 0.29761177 -0.14487426
000070 d3 08 b6 3e 61 4c bf bd 6a 58 19 be 0f 8a 20 bd
       0.35553607 -0.0934074 -0.14975134 -0.039194163
000080 53 ee b5 be 5c 32 9f be a1 9e 9d 3d 1f a8 4b 3e
       -0.3553339 -0.3109311 0.07696272 0.19888352
000090 5a 9d 67 3e c8 16 b9 be 49 d7 56 3e 05 7a f9 3d
       0.22618619 -0.36150193 0.20980562 0.121814765
0000a0 2d 07 51 be e4 40 61 3e 52 34 4b be db 25 26 3d
       -0.20412894 0.2199741 -0.19844177 0.040563446
0000b0 6d 80 98 3e 5d 65 6e be 4a 6b 93 3e 88 6e 1b 3e
       0.2978548 -0.23280855 0.28792793 0.15178883
0000c0 0e 28 b8 be 17 10 8c 3e 88 b6 22 3e f5 30 32 3e
       -0.3596806 0.27356026 0.15889943 0.17401488
0000d0 a4 52 9f be 2e 3e de 3d 02 42 01 be 2b 9f a2 bd
       -0.31117737 0.108517036 -0.12622836 -0.07940515
0000e0 f7 38 47 bd 9b eb f1 bd 9e fe 8f be 20 3b 8b 3e
       -0.04863831 -0.11812516 -0.28123945 0.27193546
0000f0 74 01 61 3e ff 0a 96 be 44 0a b4 be b5 f8 61 3e
       0.2197321 -0.29305264 -0.35164082 0.2206753

conv_blocks.1.running_var f4 [64]
000000 93 c7 70 3f 2f e7 0f 3d 48 80 94 3e b9 56 7a 3e
       0.94054526 0.035132583 0.2900412 0.24447145
000010 d4 9d 37 3d 51 8a f5 3c 39 89 16 3f 25 33 cc 3c
       0.04482825 0.029973181 0.58803135 0.024926731
000020 ae 02 ae 3e 56 71 8a 3e 5c 4c 75 3d d4 3f 3a 3e
       0.3398642 0.27039593 0.059887275 0.18188411
000030 8c a6 3f 3e d2 af 94 3e bf be 9c 3d 7e 62 d0 3b
       0.18715876 0.2904039 0.076535694 0.0063593974
000040 de 7f 0a 3e b9 8d e5 3c 52 c7 df 3d cc 31 9f 3c
       0.1352534 0.02802168 0.10926689 0.019432925
000050 02 34 48 3c c4 01 fb 3d fe c5 80 3b 47 f7 25 3e
       0.012219431 0.12256196 0.0039298525 0.1620761
000060 e9 cb 8d 3d f9 8f 1c 3f ed 58 65 3e b6 a3 6d 3e
       0.069236584 0.61157185 0.22397204 0.23206982
000070 f3 ac d0 3d d7 f7 52 3d 3e 2c 23 3e 84 7e 24 3e
       0.101892374 0.05150589 0.15934846 0.16063887
000080 1d 18 fb 3d 9e dc 63 3c a8 5f aa 3d 7f 15 55 3c
       0.122604586 0.01390758 0.08319026 0.013005613
000090 2e 21 1f 3d 47 c0 80 3d 0f 9c 9d 3e f1 44 34 3e
       0.038850002 0.06286674 0.30783126 0.17604424
0000a0 fe 1e b5 3d 76 56 38 3e 08 5a 54 3e 9c 59 89 3f
       0.08843802 0.18001732 0.20737469 1.0730472
0000b0 bf 1b d2 3e d3 b7 4c 3e 83 30 b5 3d c9 5a d2 3d
       0.41036794 0.19991998 0.088471435 0.10271222
0000c0 6e 73 c0 3d 51 f7 46 3d 25 86 74 3d 5a f4 a0 3c
       0.093970165 0.048575703 0.059698243 0.019647766
0000d0 fc c5 33 3e 32 ca 15 3f e6 da 4b 3c 0c 09 60 3e
       0.17555994 0.5851165 0.012442326 0.21878451
0000e0 58 1d fe 3d 42 72 38 3f e6 71 a5 3d 13 fd ec 3d
       0.124079406 0.72049344 0.08078365 0.115717076
0000f0 88 67 5b 3d 48 4e f5 3b d9 9b 6a 3c 5a 19 a2 3c
       0.053565532 0.0074861385 0.014319384 0.01978748

conv_blocks.5.weight f4 [64, 64, 3, 3]
000000 5b 44 8e 3b e5 ba b0 3b 63 01 ed bc 2c b3 84 bc
       0.0043416447 0.0053933733 -0.028931325 -0.016198717
000010 80 ae 20 bd 67 f4 b6 3c 3d 8e 01 be 21 32 77 3d
       -0.039228916 0.022333337 -0.12651916 0.06035054
000020 5b 03 b7 3c d7 a3 28 3d c1 9d b2 ba b0 d0 79 bd
       0.022340467 0.041171875 -0.0013627337 -0.060990036
000030 61 6b 88 3c 9b 52 31 3d 8e c3 7e 3b 30 2a 16 bd
       0.016652765 0.04329167 0.0038873884 -0.036661327
000040 e4 70 f8 3d c0 e4 6e 3d 13 55 00 bd 68 1c 33 bd
       0.12130907 0.05832362 -0.031331133 -0.043728262
000050 e0 00 82 bd 53 ad 8f bd e7 0a 62 bd d1 e0 99 bd
       -0.06347823 -0.07015481 -0.05518618 -0.075135835
000060 94 42 8a bc c5 2a b6 3b 68 62 dd bb c7 b1 1b bd
       -0.01687745 0.0055592977 -0.0067561157 -0.03801134
000070 b2 38 a9 bd e8 4a d9 bd ca 6e a9 bc 0d a5 3c bd
       -0.08262767 -0.1060999 -0.020682711 -0.046055842
000080 b3 10 a1 bd 45 14 78 bd b9 1c 7e bc 02 b8 0c bd
       -0.07864513 -0.060566206 -0.015509778 -0.03435517
000090 47 78 2f 3c b3 53 16 bd c9 01 cd bd f3 cc f3 bc
       0.010709829 -0.036700916 -0.10010106 -0.029760813
0000a0 fd 4a d0 bc a6 21 07 3d 8a 46 21 3e 81 0f 61 bb
       -0.025426382 0.032991074 0.15749565 -0.0034341516
0000b0 e7 18 af 3d b5 d0 88 3d 50 13 ef 3d 8d 42 9e 3d
       0.085496716 0.06680433 0.116736054 0.07727537
0000c0 74 34 87 bb 4a a6 0c 3d 40 3b 94 bc b9 cb 59 bd
       -0.004126126 0.034338273 -0.018094659 -0.0531728
0000d0 2b 44 4f bd 7b 14 c9 bc 7b c8 ae bc 2a 88 3d bd
       -0.05060212 -0.024545899 -0.02133583 -0.046272434
0000e0 eb 3e b9 bc 77 85 65 bd 3e 91 e8 bc 53 bd 33 bd
       -0.02261301 -0.056035485 -0.02838957 -0.043881726
0000f0 39 a5 3b bd 31 a2 5a bd ab 82 47 bd d1 8c b3 3d
       -0.045811865 -0.053377334 -0.0487086 0.08767093
000100 cd b1 8c ba 35 b1 d9 3d 0e 4c 00 3c fd fc 6b 3c
       -0.0010734141 0.10629503 0.007830633 0.014403579
000110 ee 40 e8 3d eb 68 ce 3d 01 68 18 3e ff b2 4b 3d
       0.11340509 0.10078605 0.14883424 0.04973125
000120 84 a7 f7 bb 89 d6 d9 bc 11 1f 7f 3d 5b 8c 99 bd
       -0.007557811 -0.026591556 0.062285487 -0.07497474
000130 b5 5f 01 3c d1 65 95 3b f4 d3 9a bd 01 59 8e bc
       0.0078963535 0.0045592566 -0.07559958 -0.017376425
000140 30 03 60 3c 73 9f 26 bc ae a0 2e bd 5e 1f dd 3c
       0.013672635 -0.010169852 -0.042633705 0.026992496
000150 4b df 22 bd 4c 68 8c bd b9 72 91 bd fe 9c fc 3b
       -0.03976373 -0.068558306 -0.0710196 0.0077091446
000160 39 8f a7 3c f4 12 0a bd 87 5c e1 3d f1 69 19 be
       0.020454036 -0.03370948 0.11003976 -0.1498182
000170 c2 50 91 bc ba a9 ae 3d c9 dd 35 be f0 65 88 3d
       -0.017738704 0.085284665 -0.17760386 0.06660068
000180 56 8b fb 3d 2e 1c b5 bd e8 0b ef bc a5 72 82 3c
       0.122824356 -0.088432655 -0.029180482 0.015923807
000190 3f 69 1f 3c b3 ca f6 3c 8e 6c 22 bc c2 d2 92 bc
       0.0097296825 0.030125951 -0.009913577 -0.017922763
0001a0 da 92 cd 3a 4a 1b 89 3b 80 24 23 bc a0 1c 9f bc
       0.0015684024 0.0041841613 -0.009957433 -0.01942283
0001b0 d0 79 82 3d d4 57 01 bd ff 25 c6 bc d7 7c 4c 3d
       0.0637089 -0.0315779 -0.02418804 0.049923744
0001c0 76 2b 79 bd db 49 9b bc b8 94 cf 3d 10 03 f1 bc
       -0.060832463 -0.018956115 0.10135788 -0.029420406
0001d0 ff b2 e7 3c 2b ec b8 3c 37 1b 55 3d 74 df 67 bd
       0.028283594 0.022573551 0.052027907 -0.056609586
0001e0 79 7d 9c bc 54 99 0a 3d 03 4f ca bb 08 ef 2c bd
       -0.019102799 0.03383763 -0.0061739697 -0.042220145
0001f0 09 05 db bb d6 e6 70 bd 56 65 35 bd 7c 92 27 bc
       -0.00668395 -0.058813892 -0.044286095 -0.010227796
000200 71 e2 8f bd 16 2a 8b 3c e7 1d 04 3d 57 03 39 bc
       -0.07025612 0.016987842 0.03225508 -0.0112923
000210 53 09 f3 3b 4b 70 8e 3d 15 64 b6 3d 93 57 b1 3c
       0.007416883 0.06955012 0.08905808 0.021648204
000220 73 43 67 3d e9 72 7b bd 84 29 37 bd 24 f9 f1 bb
       0.05646081 -0.061388884 -0.044717327 -0.007384436
000230 69 90 f3 ba 12 ff e7 3c f0 29 ce 3d 4d 49 73 3d
       -0.0018582466 0.02831987 0.10066593 0.059396077
000240 dc d4 b5 bc 68 da c0 bb ab a5 8c 3d bd ce 5a bd
       -0.022196226 -0.005885411 0.06867536 -0.053419817
000250 d3 16 27 bc 47 70 d4 3c f1 74 8a 3b 99 8c a6 bc
       -0.010198313 0.025932444 0.0042253663 -0.020330714
000260 b2 df 9c bc 20 b6 86 3d 5b e5 c2 3d 9d e2 66 bb
       -0.019149635 0.06577706 0.09516402 -0.0035230287
000270 bc 7a 41 bd c7 78 f4 bc 17 7e 30 bd 5c ab 83 ba
       -0.04723619 -0.029842747 -0.043089 -0.0010045576
000280 69 a8 21 3d 00 49 70 bd 58 34 01 bd d8 02 2f bd
       0.03946725 -0.05866337 -0.03154406 -0.04272732
000290 6b 37 0d bd 27 e0 13 bd 46 10 6b bc 57 c4 73 3d
       -0.03447668 -0.03610244 -0.014347142 0.059513416
0002a0 ba 12 f1 bc a9 2e 98 bc ce 67 66 bc fc d9 f5 bc
       -0.029427875 -0.018576937 -0.014062835 -0.03001117
0002b0 6a 35 c2 3c 82 59 f4 bc ce c1 1a bc 74 46 28 bb
       0.02370711 -0.029827837 -0.009445621 -0.002567676
0002c0 24 e9 9f 3d 6b cb c8 3d 36 d3 99 3d f9 94 d3 3d
       0.0780814 0.09804424 0.075109884 0.10331149
0002d0 3f 60 28 3e ef fa 3d 3e fd aa 3c 3e 25 b5 7b 3d
       0.16442965 0.18552755 0.18424602 0.06145205
0002e0 b9 cd 65 3d 53 48 9c 3d 74 fd 10 bb 88 53 2e 3d
       0.056104396 0.07630982 -0.0022123726 0.04256013
0002f0 2b c2 2e 3d 72 1b 11 3c 76 2d c6 bc be aa e8 bc
       0.04266564 0.008856641 -0.0241916 -0.028401729
000300 3f b7 21 bd 9a 6d 73 bc eb 7e 60 bd cc 7b 65 3d
       -0.039481398 -0.014857674 -0.05480854 0.056026265
000310 1c 82 32 3c c2 fe cc 3b 57 a8 03 3e 32 2c f7 3d
       0.010895278 0.0062559554 0.12857185 0.120689765
000320 6b 80 f7 3d 18 69 c7 3d 18 37 00 bd 7b 03 cc 3d
       0.12085041 0.09736842 -0.03130254 0.09961601
000330 9a 06 73 bd a8 37 e1 3c a2 ac a2 3d 25 93 b8 b9
       -0.059332468 0.02749236 0.07943083 -0.00035204846
000340 1b b0 40 bb 90 b2 46 3d 47 54 54 3d ee 7b b4 3b
       -0.0029401842 0.048510134 0.051838186 0.0055079376
000350 d5 c0 b6 3d 0a de 31 3d b7 16 28 3d b7 4b f1 3d
       0.089234985 0.043424644 0.041037288 0.117820196
000360 45 80 81 bc 4a 8f 24 bd 9f fc 26 bd 21 c5 80 bc
       -0.015808234 -0.040175714 -0.040768262 -0.015718998
000370 80 1b 1f bd f5 9e b9 b9 ab 68 85 bd 13 5b 9e bc
       -0.038844585 -0.00035404382 -0.065141045 -0.019330537
000380 90 87 e5 3b 2d 0a 4d bd ce 98 a3 bd bb 10 62 3d
       0.0070046857 -0.050058533 -0.079881296 0.055191737
000390 68 dc e7 bc 5c 54 46 bd 18 0c 74 3d 13 e0 51 bd
       -0.02830334 -0.048420295 0.059581846 -0.051239084
0003a0 f9 a6 1c bc 6d b3 85 bb 34 aa 95 3c 56 c7 59 3d
       -0.009561294 -0.004080227 0.018269636 0.053168617
0003b0 cb 1b 04 3d 3d 44 33 bd ce 9f 4b bd 59 47 b8 bc
       0.032253068 -0.04376625 -0.04971295 -0.022494959
0003c0 c3 13 90 bd 00 37 a7 bd 78 a1 80 bd a6 66 6d 3d
       -0.07035019 -0.08164787 -0.06280798 0.05795922
0003d0 49 ba b9 3c 60 e1 87 3d 49 cf be bb 89 af 93 3a
       0.022671835 0.06634784 -0.00582305 0.0011267524
0003e0 fa ee 16 bd 4e 6f 5b bd 3f 29 95 bd 69 1d 8b 3c
       -0.036849 -0.053572945 -0.07283258 0.016981797
0003f0 25 bc 01 bd b7 da 49 3d 97 f9 20 bd ab 96 cc bc
       -0.03167357 0.04928085 -0.039300527 -0.024974188

conv_blocks.5.bias f4 [64]
000000 d8 35 f9 bb 03 6d f8 bc d0 e7 8d 3b 51 23 07 bd
       -0.0076052956 -0.030325418 0.0043306127 -0.032992665
000010 ed 16 bb 3c 39 00 84 3c 16 25 87 bc 7b 0b 6f bb
       0.02283808 0.016113387 -0.016497176 -0.0036475349
000020 65 cd 9f 3c 3b 26 9f 3c 80 5a 14 bd 82 cf 9c bc
       0.01950712 0.01942741 -0.03621912 -0.019141916
000030 57 79 b9 bb b1 03 00 3d b4 be 0f 3d 78 42 8c bc
       -0.005660217 0.03125352 0.035093978 -0.017121539
000040 66 98 1e 3c 67 91 14 bd 43 5f 23 3d 93 29 dc 3b
       0.009679889 -0.03627148 0.03988577 0.006718823
000050 8e 34 ce bc 2e 56 5a bc fb f5 a6 3c da 41 2a bd
       -0.025171544 -0.013326211 0.020380965 -0.041566707
000060 32 71 17 3c e6 cf 20 3c 91 61 16 bc 09 1e a2 3c
       0.009243296 0.009815192 -0.009178535 0.019789713
000070 6d 8f 98 b9 00 5b 1b 3c f8 19 90 3c 0f 77 32 bc
       -0.0002909856 0.009482145 0.017590508 -0.010892644
000080 1f 2e 42 3c de a5 16 3b 31 01 1f bd 07 3a a4 3c
       0.011851816 0.0022987048 -0.038819496 0.0200472
000090 f9 ad 95 bc cc e2 2a bd 56 f9 0f 3d f3 6c de bc
       -0.018271433 -0.041720197 0.035149895 -0.02715156
0000a0 4b bb 09 3d 98 b4 03 bd e9 b4 78 3c f0 30 02 3d
       0.033625882 -0.03215465 0.015179851 0.03178495
0000b0 f2 29 d8 3c eb 52 56 bc 9a 78 a0 3c d4 e4 e9 3c
       0.026387189 -0.013081293 0.019588757 0.028551497
0000c0 65 99 09 3b d6 30 3b bd d3 b7 96 3c bc 37 b2 3c
       0.0020995971 -0.04570087 0.018398201 0.021755092
0000d0 c0 6d 4b 3c 76 ad 5a 3b f4 f7 01 bd e1 62 57 bc
       0.012416303 0.003336755 -0.031730607 -0.013146133
0000e0 0e fb 01 3d 73 d1 9e 3c ff c8 10 3d 12 f8 75 bb
       0.031733565 0.019386983 0.035347935 -0.0037531895
0000f0 81 76 f8 3c 11 bf d4 bb ca 77 da 3c 1c 45 fd 3c
       0.030329945 -0.0064925035 0.026668448 0.030916743

conv_blocks.6.weight f4 [64]
000000 7e 09 81 3f aa b3 80 3f 9c e7 82 3f 6b d6 81 3f
       1.0081022 1.0054829 1.0226932 1.014356
000010 b5 6d 74 3f 7b ec 76 3f 5a ab 86 3f f0 35 88 3f
       0.954799 0.9645459 1.0521042 1.064146
000020 c4 4f 7d 3f f6 47 87 3f d2 81 7b 3f 9f 8c 81 3f
       0.9894984 1.0568836 0.98244965 1.0121039
000030 69 60 7d 3f ac e8 76 3f e7 e0 6a 3f 70 ab 8e 3f
       0.98975235 0.9644878 0.91749424 1.1146069
000040 5d 6f 79 3f f9 b5 7d 3f 80 1d 80 3f 62 02 79 3f
       0.9743555 0.99105793 1.0009003 0.9726926
000050 a8 2e 83 3f b8 0c 83 3f 73 34 82 3f 3e e7 5c 3f
       1.0248613 1.0238256 1.0172256 0.8629035
000060 58 3d 77 3f 4a b9 83 3f 13 e5 81 3f 20 3e 80 3f
       0.9657798 1.0290921 1.0148033 1.0018959
000070 b4 c4 68 3f 0d 8d 82 3f ad c1 70 3f 8d 05 78 3f
       0.90925145 1.0199295 0.94045526 0.9688347
000080 f5 7c 86 3f f2 c5 72 3f 4a 29 83 3f 5c e5 69 3f
       1.0506884 0.9483329 1.0246975 0.913656
000090 2a 8c 84 3f d5 f2 79 3f 81 c9 86 3f b1 34 86 3f
       1.0355275 0.9763616 1.0530244 1.048483
0000a0 ed 86 80 3f eb 86 72 3f c2 33 85 3f 26 69 81 3f
       1.0041176 0.9473712 1.040642 1.0110214
0000b0 c6 46 86 3f c1 82 7d 3f 77 39 84 3f d2 12 8c 3f
       1.0490348 0.9902764 1.0330037 1.0943244
0000c0 ac 20 87 3f b0 78 83 3f e7 db 80 3f 75 35 6b 3f
       1.0556846 1.0271206 1.0067109 0.91878444
0000d0 20 1f 7f 3f 91 e5 8b 3f c0 01 7e 3f c0 fc 82 3f
       0.9965687 1.0929433 0.9922142 1.0233383
0000e0 ef e7 7e 3f 07 dd 75 3f 35 8f 8e 3f 32 f5 7f 3f
       0.9957265 0.96040386 1.1137453 0.99983513
0000f0 2d 4b 86 3f 38 3a 7a 3f 73 fb 7c 3f 9c c1 7b 3f
       1.0491692 0.97745085 0.9882118 0.983423

conv_blocks.6.bias f4 [64]
000000 29 fe 67 bd 56 3d 8c bd 78 12 e9 bd c3 7f df bc
       -0.05663887 -0.068476364 -0.11380476 -0.027282601
000010 f9 b8 74 bd 3c d9 27 bd 81 c4 2e bb c4 a6 26 3d
       -0.059746716 -0.040978655 -0.0026667418 0.040686384
000020 78 b2 cf bd 1f 7a e5 bd 59 e6 c2 bd 53 f4 3c bd
       -0.10141462 -0.112049334 -0.095165916 -0.046131443
000030 03 da b6 bd ca af 0c bd c9 38 52 bd 25 bb cb bd
       -0.08928301 -0.034347333 -0.051323686 -0.09947804
000040 1c b7 7d bd 51 01 85 3c 83 c2 a3 bd f0 a2 90 bd
       -0.061942205 0.01623598 -0.079960845 -0.07062328
000050 8f 3d 93 bd 9e 45 9f bd f3 5c 21 bd 88 fe 0a bd
       -0.07189476 -0.0777695 -0.039395284 -0.033934146
000060 b1 10 54 bd 5c 6e be bd 5c 96 3c bd 56 5b a4 bd
       -0.05177373 -0.09298393 -0.04604183 -0.080252334
000070 25 85 7a bc 42 83 52 bd b2 b8 dd bd ed 5c ca bd
       -0.015290533 -0.05139471 -0.108262435 -0.098810054
000080 89 55 67 bd d4 3a ce bd 65 3d 3a bd 34 dc 71 bd
       -0.056478057 -0.10069814 -0.045468707 -0.059047893
000090 a8 70 25 bd 59 97 88 bd ac 75 36 bd 80 ea 51 3c
       -0.04039064 -0.06669492 -0.044545814 0.012812257
0000a0 43 48 c1 bd aa cd a2 bc 55 69 21 be 73 3a 76 bd
       -0.09437611 -0.019873459 -0.15762837 -0.060114335
0000b0 09 d3 f6 bc 87 9d cf bd a8 ca 66 bd 4f 03 2c bd
       -0.030129926 -0.10137468 -0.05634561 -0.041995343
0000c0 14 5e 8e bd 1e 12 6f bd d6 ec ea bd 1a 07 87 bc
       -0.06951538 -0.058366887 -0.11470954 -0.016482878
0000d0 2f 3c c1 bd 19 68 ae 3d c1 a9 bc bd 65 a3 d4 bd
       -0.09435307 0.08515949 -0.092120655 -0.103827275
0000e0 20 1c a1 bd b4 58 b7 bd e8 32 4e 3c 96 07 4a bd
       -0.078666925 -0.08952466 0.012585379 -0.04932364
0000f0 eb 8a 39 bd a1 48 91 bd f8 d3 b4 bd 84 37 7d bd
       -0.045298498 -0.07093931 -0.08829492 -0.061820522

conv_blocks.6.running_mean f4 [64]
000000 16 ff ce 3f ec 45 58 c0 03 69 a2 be b6 9b f8 be
       1.6171596 -3.3792677 -0.31720743 -0.48556298
000010 42 01 f2 3f d0 6f d0 3f 8d 48 d8 bf ea 4d 13 c0
       1.8906634 1.6284122 -1.6897141 -2.3016305
000020 50 14 74 c0 d3 38 31 bf 89 26 71 c0 18 e6 52 c0
       -3.8137398 -0.6922733 -3.767977 -3.2952938
000030 df 7c 9e 3e 7f f2 0f bf 7d 49 be 3f 34 28 97 be
       0.30954644 -0.56229395 1.4866177 -0.2952286
000040 f2 a9 ae 3f ae 2a 89 3f b8 cd f1 3f 57 72 1e 3e
       1.3645613 1.071615 1.8890905 0.15473305
000050 dc ed 33 bf 1d cf 30 3e 15 10 9f 3e 69 28 1f 3f
       -0.7028482 0.17266507 0.31066957 0.62171036
000060 0d 9c 86 3f 4e 70 66 3f 08 e5 04 be 22 95 55 c0
       1.0516373 0.90015113 -0.12977993 -3.3372273
000070 84 c3 24 3f 23 9b b6 3f 71 32 54 c0 0d e6 72 c0
       0.64360833 1.4266094 -3.3155787 -3.7952912
000080 68 fd 8c bf c6 2c 91 c0 9f 0f b9 bf ce 73 71 3f
       -1.1014833 -4.5367155 -1.4457892 0.9431733
000090 9d dd 7c bd 7b 3f 3f c0 e7 45 42 bf a9 76 80 bf
       -0.061734784 -2.9882495 -0.7588791 -1.0036212
0000a0 d3 54 39 c0 42 c7 94 3f ba ea 18 c0 aa 43 06 bf
       -2.8958023 1.1623309 -2.3893266 -0.52447
0000b0 63 b9 95 bf 7d f8 5f c0 00 2e 42 bf 5d 5d d7 bf
       -1.16972 -3.4995415 -0.7585144 -1.6825367
0000c0 4a a4 6a bf a6 b0 6d bf 3c b8 bd be b6 b7 17 40
       -0.91656935 -0.9284767 -0.37054622 2.3705878
0000d0 0e d4 6b c0 b6 c9 14 bf fa 59 27 c0 75 e3 e1 be
       -3.6848178 -0.58120286 -2.6148667 -0.44118848
0000e0 6c 24 4c 3f a0 d5 52 c0 91 dc 48 bf 48 ae 4c c0
       0.79743075 -3.2942886 -0.7846156 -3.1981373
0000f0 e1 ec b5 3d a3 bd b5 3f f9 14 7c c0 76 cd 80 3e
       0.08883072 1.4198498 -3.93878 0.25156754

conv_blocks.6.running_var f4 [64]
000000 1c 54 f0 40 35 b7 89 41 5f 14 9e 40 b4 83 25 41
       7.5102673 17.214457 4.9399867 10.344654
000010 5e 7a 22 41 ef 73 f0 40 d9 eb cf 40 3e 17 3c 41
       10.154875 7.514152 6.49754 11.755674
000020 4a c0 a8 41 81 5d c5 40 bb 9b a4 41 d2 bb 8b 41
       21.093891 6.167664 20.57604 17.46671
000030 91 41 ea 40 35 6b 14 41 55 96 b5 40 f9 72 42 40
       7.3205037 9.276174 5.674601 3.0382674
000040 25 d4 c9 40 5b 3f c7 40 c1 d0 1d 41 a5 8a aa 40
       6.3071465 6.226484 9.863465 5.3294244
000050 1b 1a 44 40 5b 23 c7 40 16 95 c8 40 73 34 29 41
       3.0640934 6.223066 6.268199 10.575305
000060 f4 72 ca 40 5e c2 89 40 e1 6f d0 40 c1 95 88 41
       6.3265324 4.3049765 6.513657 17.073122
000070 a8 e0 7c 40 da 75 ac 40 d9 88 a6 41 24 60 ab 41
       3.951212 5.389386 20.81682 21.421944
000080 4f 25 cc 40 dd e3 0b 42 a9 15 ef 40 5d a4 c5 40
       6.3795543 34.972523 7.471394 6.176314
000090 0c 55 03 41 2c 01 7f 41 8e f6 ca 40 3b 8d 0c 41
       8.208263 15.937786 6.342597 8.78448
0000a0 d2 5e 62 41 24 a5 df 40 92 4e 68 41 19 a1 e8 40
       14.1481495 6.988909 14.519182 7.2696652
0000b0 92 dc aa 40 ab 49 89 41 3d 89 d4 40 1e e7 f6 40
       5.339425 17.16097 6.6417527 7.7157125
0000c0 bd 2a fb 40 bf 25 c2 40 a5 0e 86 40 fd ee 74 41
       7.848967 6.0671077 4.1892877 15.308347
0000d0 44 29 9d 41 18 c8 a7 40 db 7f 30 41 82 ea 80 40
       19.64515 5.2431755 11.031215 4.0286264
0000e0 82 1b 8d 40 47 0e 86 41 e2 a1 e2 40 7c 20 7e 41
       4.409608 16.756971 7.082261 15.882931
0000f0 a6 e2 35 40 43 76 c0 40 0e e0 bd 41 03 27 36 40
       2.8419585 6.0144362 23.734402 2.846131

conv_blocks.10.weight f4 [64, 64, 3, 3]
000000 7a c7 ed bd fc 6a 5d be ed 0c 08 be db f4 97 bd
       -0.11610313 -0.21622843 -0.13286181 -0.07419749
000010 f2 79 03 bd 8a 96 7b bd 1b 72 cd bd b0 e1 9a bd
       -0.032098718 -0.061422862 -0.100315295 -0.07562578
000020 1e a7 a3 bd 99 2e 98 3c 00 1a 12 3c 6b 63 c6 bc
       -0.079908594 0.018576907 0.008917332 -0.024217328
000030 45 8a c8 3a 70 d0 23 bd 2e e2 6d bc 53 ff 42 3c
       0.0015299997 -0.039993703 -0.0145192575 0.011901694
000040 90 af 2e bd b0 b7 48 bd 4b 26 96 3c eb 2f 01 3c
       -0.0426479 -0.049003303 0.018328806 0.00788496
000050 c2 8f 01 3d 6c ca ea bc fd 6b 84 3c 77 a9 1b 3d
       0.03163124 -0.028660975 0.016164774 0.03800341
000060 56 b7 35 bd 38 40 c8 3c 1d 70 ac 3c 44 ff 88 bc
       -0.044364296 0.024444684 0.021049554 -0.016723283
000070 68 96 a1 3b 8c b6 7f bd ed 51 0c 3d 90 bb 9b 3c
       0.00493126 -0.06242995 0.034257818 0.019010335
000080 6c 17 f9 3c 20 e1 2e 3d 52 94 e5 3c 1e 87 00 3c
       0.030406676 0.042695165 0.028024826 0.007844714
000090 72 cf cf bd ed 7e 39 be 5d 21 15 be 23 7a 0b bd
       -0.10146989 -0.18114825 -0.14563508 -0.034052026
0000a0 05 4b af bd 48 95 02 bd 02 18 64 bd 95 2d 28 be
       -0.08559231 -0.031880647 -0.055686958 -0.16423638
0000b0 5d a2 83 bd dd 22 45 bd c3 c0 a1 bd 49 96 85 bd
       -0.06427453 -0.04812895 -0.078980945 -0.06522805
0000c0 cb 40 c2 bb 85 3e 64 3c 10 53 97 3c 0b 5f 80 3c
       -0.005928134 0.013930921 0.018472224 0.01567032
0000d0 76 d9 6b bc 2f b3 a3 bd 84 4b c3 bd 34 ce 9b bd
       -0.014395108 -0.07993161 -0.09535888 -0.076076895
0000e0 da ea 85 bd e9 64 01 bc d1 39 a3 3c fb 62 93 3c
       -0.06538935 -0.007897594 0.01992503 0.017991534
0000f0 7b 2c 68 bd 0b 13 9d bd 0a ad 1c 3d 0e 4e 37 3d
       -0.056683045 -0.07669648 0.03825096 0.044752173
000100 84 7e f4 3c 63 59 cc 39 0d a2 54 3d ed 6c 22 bd
       0.029845484 0.0003897651 0.051912356 -0.03965466
000110 de 40 80 bd 3d 73 3b 3d 00 f8 06 bd 66 39 8c bd
       -0.062623724 0.045764197 -0.032951355 -0.068468854
000120 dc 1f 1d 3d 94 26 a1 3c 99 22 67 3d 70 12 1a bc
       0.03836046 0.019671716 0.05642948 -0.00940381
000130 34 4c b0 bb 35 ae b7 bc 5e a7 27 bd d5 41 c0 bc
       -0.005380178 -0.022421936 -0.0409311 -0.023468891
000140 81 57 fa bc 51 24 b0 3b e6 e7 0d bc 9b 66 96 3d
       -0.030559303 0.005375423 -0.008661246 0.07343789
000150 62 b9 0f bd b9 e6 b5 3c fc f1 5d bd c8 6d 06 bd
       -0.035088904 0.022204744 -0.054185852 -0.03281954
000160 4f 58 00 bd 23 a6 d3 3c 9f 89 0d bd 60 ce ac bc
       -0.031334218 0.025836056 -0.034555074 -0.021094501
000170 da ea 44 bd cf 52 07 bd 18 68 32 bd b4 51 39 bd
       -0.048075534 -0.033037957 -0.043556303 -0.045243934
000180 8f 58 0a bd 40 55 55 bd 75 16 88 bd e4 92 35 bb
       -0.033775862 -0.052083254 -0.06644908 -0.0027705962
000190 81 48 2f bd c2 22 2e bd 39 13 80 bc 4e 96 80 bd
       -0.042793754 -0.042513616 -0.015634166 -0.06278668
0001a0 1d cd bf bd 56 49 af 3b 22 45 7d bd 5a 2e b6 bd
       -0.09365294 0.0053493185 -0.06183351 -0.088955596
0001b0 cf 5a e3 bc 0e 29 62 bc 7f 14 7a bd 96 13 80 3d
       -0.027753262 -0.0138037335 -0.061054703 0.06253736
0001c0 19 97 98 3c ba bd 30 bd 48 b7 f3 ba e5 d2 54 3d
       0.018626736 -0.043149687 -0.0018594051 0.051958937
0001d0 f2 b6 8e bb 75 ed 16 bd ae 2b d1 bd 6c bc f1 bd
       -0.004355305 -0.03684755 -0.10213409 -0.11803517
0001e0 bb 9c 84 bd 25 f4 8c bd 73 92 d3 bd 8d c3 9b bc
       -0.064752065 -0.068825044 -0.10330667 -0.019014144
0001f0 73 db e7 bd 03 f0 a5 bd 2b 81 6b bd cd 1c 4e bd
       -0.113211535 -0.08102419 -0.05749623 -0.050320435
000200 8d 09 1c be 54 02 15 bd 9c 9c c2 bc 85 d2 26 bc
       -0.15238018 -0.036379173 -0.023756318 -0.010182028
000210 63 b3 b8 bd 3c ff d2 bb 54 54 33 3c 95 00 11 be
       -0.0901859 -0.0064391177 0.010945398 -0.14160378
000220 1a fb 2a 3c 70 cf 4d 3d 4e 5b b0 bd c7 54 21 bd
       0.010435844 0.050246656 -0.08611165 -0.03938749
000230 18 7e aa bb e3 6b 32 bd 96 48 a8 3d 8f 11 06 3d
       -0.00520302 -0.04355992 0.0821697 0.03273159
000240 4e 0a 34 bd 78 13 fd bc 20 16 2a bd 60 83 0c 3d
       -0.04395514 -0.030893072 -0.041525006 0.034304976
000250 e6 23 c2 3c af 06 99 3b 18 30 c4 bc a1 78 30 3d
       0.023698758 0.004669986 -0.023948714 0.04308379
000260 03 88 92 bc f0 4e 00 bc 76 11 4c bd fa a8 53 bd
       -0.017887121 -0.00783132 -0.04982134 -0.05167482
000270 91 33 b3 3d 44 e5 cc bb 94 20 76 3c 91 0b 94 bc
       0.0875007 -0.0062529165 0.015022416 -0.018071922
000280 cc 07 47 3d 08 c7 cf bb 9a 4e 11 3a e8 8b a1 3d
       0.04859142 -0.006340865 0.00055430236 0.07888013
000290 95 f1 aa 3d 41 ae 22 3d 3a 68 ce 3d 3b 41 bb 3c
       0.08346859 0.039716963 0.100784734 0.022858253
0002a0 36 ba d7 3d 67 fb 5a 3d 42 fc d7 3d 9c e5 06 bd
       0.10533564 0.053462412 0.10546161 -0.032933816
0002b0 8d 33 9b bd 7b a9 10 bd bb ce 3d 3d c0 c9 3a bd
       -0.07578192 -0.03531788 0.04633973 -0.04560256
0002c0 08 5d 0d 3c 23 78 12 bb 25 3c e4 bc 61 c1 d7 bc
       0.008628137 -0.002234944 -0.02786071 -0.026337327
0002d0 65 e3 03 3c 1d b0 c7 bd 85 95 2c be 65 ce 33 3d
       0.008049821 -0.09750388 -0.16853912 0.043898005
0002e0 82 46 00 3d aa 6b 97 3c 9f 83 e2 3c 22 2f 09 bd
       0.03131724 0.018483955 0.027650652 -0.033492215
0002f0 22 7c 8c bd ca 94 a4 bd e0 90 20 be 88 c2 f8 bd
       -0.06859614 -0.08036192 -0.15680265 -0.12146479
000300 fe 9c 8c bd e0 9b 9d bd 81 7b 3e bd f2 94 97 bc
       -0.068658814 -0.076957464 -0.0465045 -0.01850364
000310 b0 2e e8 bd 46 06 c2 bd bc b1 34 3c 27 2e b9 bc
       -0.1133703 -0.09473853 0.011028703 -0.022605015
000320 cb d9 8b 3c 16 22 0c bd 07 c5 da bc 45 0b a5 3c
       0.017071625 -0.034212194 -0.026705278 0.020146975
000330 b9 a8 a1 bb 63 b0 f1 3d db 7e c6 bb 5c 77 b9 bd
       -0.0049334434 0.11801221 -0.006057603 -0.09055969
000340 83 77 da bd 64 7b 2e be c5 8b 6e 3c 24 d2 93 bd
       -0.10667326 -0.17039257 0.014559691 -0.072178155
000350 dc c3 d3 bd a3 96 8e 3c 96 5d af bd 66 91 18 be
       -0.103400916 0.017405814 -0.08562772 -0.14899215
000360 0d 11 81 bd 14 83 28 bd 98 f9 f5 bd b6 1b 24 bd
       -0.0630208 -0.04114063 -0.12010497 -0.04006549
000370 5d 54 a3 bc d1 61 62 bc df 6b d3 3b ed 80 8c bc
       -0.019937688 -0.013817267 0.006452068 -0.01715132
000380 c4 6e b2 bd 98 d6 fe 3c 65 f4 b5 3b 0f 39 4d 3d
       -0.08712533 0.031108186 0.0055528157 0.050103243
000390 f8 96 52 3d be 90 b1 3d f4 06 92 3c 9a 75 4d 3d
       0.051413506 0.086701855 0.017825581 0.05016098
0003a0 7c 0f 9b 3d dd 11 c6 3b ac 8b c3 bd 36 c7 8e bd
       0.07571313 0.00604461 -0.09548125 -0.0697159
0003b0 68 f8 00 be 8b ab ea 3c a1 27 43 bd 18 6d 0e be
       -0.1259476 0.028646251 -0.047645215 -0.13908803
0003c0 ac c8 ac bd 86 0c c9 bd 45 db fa bd 66 d6 a3 bc
       -0.084367126 -0.09816842 -0.122488536 -0.019999694
0003d0 71 63 d4 bc 37 de ce bc ed 76 a2 bd 79 18 fe bc
       -0.025926324 -0.025252445 -0.079328395 -0.031017529
0003e0 30 a5 a3 bd b5 7d f2 3c ea ab a8 bd 7a 43 69 bd
       -0.079904914 0.029600957 -0.08235915 -0.056949116
0003f0 ce df 02 bd 26 86 08 3c 24 04 6e bd c8 e6 a2 3d
       -0.031951718 0.008332765 -0.058109418 0.07954174

conv_blocks.10.bias f4 [64]
000000 d5 72 04 3a d0 fa 83 3c 37 a1 d3 3c b6 9b 0a bd
       0.00050525117 0.016110808 0.02583371 -0.033839904
000010 90 25 0b bd 39 50 67 3a 69 41 f4 bc 2b 15 28 3d
       -0.03397137 0.0008823905 -0.029816346 0.041035812
000020 ed 93 a3 3b 73 fb f4 bb ca 82 94 bc f2 ae 69 3c
       0.0049919994 -0.007476264 -0.018128771 0.014262902
000030 d4 46 e2 3c 8f 7a ac 3c 2d 40 5a 3b 6e 70 68 3c
       0.027621664 0.021054534 0.0033302412 0.014186962
000040 89 6d 61 bc 83 44 1f 3d 3f b0 c0 3c e0 98 42 3c
       -0.013759025 0.038883697 0.02352154 0.011877269
000050 d8 55 79 3b 6e 64 e6 3b cd d1 10 3d b5 14 17 bd
       0.0038045552 0.007031015 0.03535633 -0.036884982
000060 e2 27 b6 bb 11 11 7c 3c 90 eb f5 b9 9e c5 f4 3c
       -0.0055589536 0.015384928 -0.0004690555 0.029879387
000070 32 e8 84 bc cb 66 a7 3c d3 0c f5 3c db f2 15 bd
       -0.016224 0.020434758 0.029913342 -0.03660856
000080 2b a7 1b 3d 92 fa e5 3c a6 60 95 3c f6 de f0 bc
       0.03800122 0.028073583 0.018234562 -0.029403191
000090 f8 24 24 3d 9d f9 2e bd d1 b6 1e bd 1b 0b 16 bd
       0.04007432 -0.04271852 -0.038748566 -0.036631685
0000a0 55 c2 9b bc 53 7b 6e bb df da 00 3d 2c 96 dc 3c
       -0.019013563 -0.0036389425 0.03145873 0.026927076
0000b0 f6 25 36 3c 04 c6 9a 3b cf 68 10 bb e6 37 af 3c
       0.011117449 0.0047233123 -0.0022035127 0.02138896
0000c0 ab 5e bd 3c d1 a8 f5 bb 08 3a f9 3c f2 8d 05 3d
       0.02311643 -0.007496931 0.03042318 0.032606073
0000d0 1b 0a 07 3d 33 98 e2 bb 10 68 fd 3a bf e8 51 3c
       0.03296862 -0.006915116 0.0019333381 0.012811839
0000e0 f0 4e fa bc 90 b1 e5 bc 8b 51 5d bc 28 16 e3 bc
       -0.030555218 -0.02803877 -0.013508211 -0.027720526
0000f0 4b b4 82 bc 2e fb 39 3b 0f 07 17 bc 61 ee ba bc
       -0.015955111 0.0028378475 -0.0092179915 -0.022818746

conv_blocks.11.weight f4 [64]
000000 7c 0a 88 3f b0 fa 79 3f e8 96 86 3f e9 43 8e 3f
       1.06282 0.97648144 1.0514803 1.1114475
000010 49 9d 73 3f 02 46 82 3f 2d a3 6d 3f 5a e1 7f 3f
       0.95161873 1.0177615 0.9282711 0.99953234
000020 6d 54 8a 3f fb a9 88 3f 18 0a 76 3f fa 13 73 3f
       1.0807015 1.0676874 0.9610915 0.94952357
000030 ed 38 82 3f 70 8f 84 3f ab 8d 7b 3f 0d 78 86 3f
       1.0173622 1.0356274 0.98263043 1.0505387
000040 b8 e5 7a 3f 75 eb 83 3f 91 0b 84 3f 9b 36 8c 3f
       0.98006773 1.0306231 1.031603 1.0954164
000050 c2 39 82 3f 91 fb 84 3f ec 8f 80 3f 3a 33 82 3f
       1.0173876 1.0389272 1.0043921 1.0171883
000060 e0 81 85 3f fc 6a 80 3f af f5 71 3f 1a 62 86 3f
       1.043026 1.0032649 0.9451551 1.0498688
000070 12 e6 7e 3f 3e 42 85 3f bb 14 4d 3f ef da 86 3f
       0.9956981 1.041084 0.8010976 1.0535563
000080 b3 1f 64 3f 69 ff 75 3f 47 d1 82 3f e9 af 7e 3f
       0.8911087 0.9609285 1.0220116 0.9948717
000090 75 ff 84 3f 7d e2 74 3f cd c3 71 3f 9d 90 7c 3f
       1.0390459 0.95658094 0.94439393 0.9865816
0000a0 6a 79 7b 3f 76 6f 7d 3f 29 a4 81 3f 2e af 6d 3f
       0.9823214 0.989982 1.0128223 0.9284543
0000b0 b3 6e 56 3f 9c cd 81 3f 6b 17 79 3f ba 3b 6f 3f
       0.83762664 1.0140872 0.9730136 0.9345051
0000c0 39 5d 75 3f bb f6 8a 3f 2b 48 81 3f 8c 0e 81 3f
       0.9584537 1.0856546 1.0100149 1.0082564
0000d0 7a f4 6c 3f 6f 43 82 3f 70 7d 85 3f 15 99 77 3f
       0.9256054 1.0176829 1.0428905 0.9671796
0000e0 2c fd 87 3f da e7 86 3f 7f 16 77 3f 23 79 80 3f
       1.0624137 1.0539505 0.965187 1.0036968
0000f0 95 25 76 3f bf 87 8a 3f 0c 41 85 3f f6 38 5e 3f
       0.96151096 1.0822676 1.0410476 0.86805665

conv_blocks.11.bias f4 [64]
000000 77 ca 11 bd 97 19 a4 bd 2e de 1d bd cd 2a 02 be
       -0.035593476 -0.080126934 -0.038541965 -0.1271164
000010 0a ef 91 bd 9c d1 66 3d 80 ff 11 be 62 c8 00 be
       -0.07125671 0.056352243 -0.14257622 -0.1257644
000020 48 e2 ba bd 9d 73 2f bd 05 ae fc bd b7 cf 95 bd
       -0.09125191 -0.042834867 -0.12337879 -0.07315009
000030 8e af 2d bc e4 8f 6c bd af 3e d8 bd e0 2a ce bd
       -0.0106009375 -0.057754412 -0.10558831 -0.100667715
000040 4d b7 85 bd b0 ff aa bd 96 9e 58 be 32 34 aa bc
       -0.065291025 -0.0834955 -0.21154246 -0.020776842
000050 a6 85 53 bd d2 1c 89 3c f3 b0 16 3d 91 f9 bc bd
       -0.05164113 0.016737375 0.036789846 -0.092272885
000060 46 7d 20 bb 3c a2 29 bd cc 57 5c 3d c6 c3 2b ba
       -0.0024488731 -0.041414484 0.053794667 -0.0006552305
000070 3f 0e e7 bd 46 7f 19 bd 87 5b 41 be ab 29 e6 bd
       -0.11282014 -0.037474893 -0.18882571 -0.11238416
000080 03 11 ca bd 5e 42 91 bd 59 bc ad bd df 96 24 be
       -0.09866526 -0.07092737 -0.0848319 -0.16073178
000090 81 c2 19 be 7d 82 ef bd 0d e1 10 be d9 9c 77 bd
       -0.15015604 -0.116948105 -0.1414835 -0.060452316
0000a0 84 36 5a be d4 25 c1 bd e5 a4 ed bc 45 fd f6 bd
       -0.21309859 -0.09431043 -0.029009292 -0.12060026
0000b0 3f 01 13 be 90 e6 fe bd 2f ac 8b bd 80 a1 dd bd
       -0.14355944 -0.1244632 -0.06819951 -0.10821819
0000c0 14 de a3 bd fb 7b a6 bd e2 2a 58 be 65 d6 80 bd
       -0.080013424 -0.08129116 -0.21110108 -0.062908925
0000d0 ad 20 0a be 18 94 1d 3d 3b 50 04 be aa e0 88 bd
       -0.13489027 0.03847131 -0.1292123 -0.06683476
0000e0 51 0c 32 bd 51 b2 df 3c e0 64 82 bd a9 54 89 bd
       -0.043468777 0.027306708 -0.06366897 -0.06705601
0000f0 d1 e5 4a be be a9 61 bd ad 3d 3f bd 65 e1 4a be
       -0.1981423 -0.05509352 -0.046689678 -0.19812544

conv_blocks.11.running_mean f4 [64]
000000 5d 6d 83 c0 8b 8e 7b c0 09 04 95 c0 bf b2 0f be
       -4.1071 -3.9305751 -4.6567426 -0.1403303
000010 6e a0 cf bc 6d 89 99 c0 b0 ef 98 c0 e3 82 ae bd
       -0.025345054 -4.7980256 -4.7792587 -0.085210584
000020 46 ce 1a c0 b7 8f d8 bb 4f b8 62 bf 92 0d 50 bf
       -2.41884 -0.006608929 -0.8856248 -0.81270707
000030 d7 ed 85 c0 de fc 1c c0 c0 1a ec bf 91 01 2e 3f
       -4.185283 -2.4529338 -1.8445663 0.6797114
000040 d6 85 9a c0 4d 38 89 c0 5c f9 44 40 e3 64 47 c0
       -4.8288374 -4.2881227 3.0777197 -3.1155326
000050 71 01 8e 3f da c1 0a c0 16 91 ad c0 39 e6 0b c0
       1.109419 -2.1680818 -5.4239607 -2.1859267
000060 0e 0c 8c c0 9e 31 6d 3f 8f 34 93 c0 40 99 91 c0
       -4.3764715 0.92653835 -4.600166 -4.5499573
000070 7e 94 0b c0 fe e4 5b c0 6c ee 21 40 07 c5 45 c0
       -2.1809382 -3.4358516 2.530177 -3.0901506
000080 c5 3e 4e 40 a7 f1 1e 3e c2 a7 db 3f 58 28 c9 bf
       3.2225811 0.1552187 1.7160571 -1.5715437
000090 61 78 a2 3d bd b1 bc bf f7 9e 8f be e8 5b dd bf
       0.07933117 -1.4741741 -0.28050968 -1.7293673
0000a0 57 4b b7 3f 42 90 91 bf 91 35 a1 c0 40 0b 6e 3f
       1.4319867 -1.1372149 -5.037789 0.92985916
0000b0 a2 95 ea 3f 1a 73 a2 3f d0 27 08 c0 99 98 10 be
       1.8326914 1.2691376 -2.12743 -0.14120711
0000c0 11 14 d1 3e 31 95 81 bf 8f f7 29 3f 05 6d 2d bb
       0.40835622 -1.0123655 0.6639337 -0.0026462686
0000d0 a7 25 1c bf bf 96 be c0 45 55 8a 3f b6 f5 1b bf
       -0.6099495 -5.9559016 1.0807272 -0.609218
0000e0 14 ff 9b 3f 44 ff 3a c0 8f 9e 29 3e 0d e0 9b 3e
       1.2187219 -2.9218302 0.16564392 0.30444375
0000f0 d2 12 da bf 56 77 4a c0 e8 f9 1c c0 9a 98 88 bd
       -1.7036994 -3.1635337 -2.452753 -0.066697314

conv_blocks.11.running_var f4 [64]
000000 17 59 79 41 0f 0f 72 41 62 2a 95 41 0f 5b 0a 41
       15.58425 15.128676 18.645695 8.647231
000010 10 35 72 41 7a 26 fb 41 4b e0 7c 42 c9 94 ae 40
       15.137955 31.393787 63.219036 5.4556623
000020 70 d8 1c 41 c9 52 1a 41 ac a2 bf 41 ba bf 64 41
       9.802841 9.645211 23.95443 14.296808
000030 59 fb b6 41 51 a2 49 41 86 d9 66 41 5a 2e bb 40
       22.872728 12.602128 14.428106 5.849408
000040 87 45 cf 41 bb e7 05 42 de d1 57 41 79 8e 45 41
       25.908949 33.4763 13.488737 12.347283
000050 b2 71 19 41 3a c9 4d 41 a9 3b db 41 7b db 6a 41
       9.590258 12.861628 27.40413 14.678584
000060 ab 92 ac 41 d7 85 43 41 3d cd 92 41 ab a6 a7 41
       21.571615 12.220176 18.350214 20.95638
000070 71 59 b7 41 36 07 ad 41 e7 89 51 41 e9 2b fb 41
       22.918673 21.628521 13.096168 31.39644
000080 2e a8 a5 41 3c 01 4a 41 f0 71 e7 40 9b 41 e6 40
       20.707119 12.625301 7.2326584 7.1955085
000090 7e 21 80 41 73 ca b4 40 71 a7 9a 41 ed 96 f1 41
       16.016354 5.649713 19.331758 30.198694
0000a0 68 2a 12 41 b3 eb b1 41 ab 5c 30 42 da f8 87 41
       9.135353 22.240088 44.090496 16.99651
0000b0 1b 52 f8 40 a9 6b 11 41 16 e7 93 41 6e b5 83 41
       7.7600226 9.088784 18.487835 16.463589
0000c0 ea 6a 12 41 5d d6 eb 40 40 f7 32 41 2f 86 62 41
       9.151102 7.3699174 11.185364 14.15776
0000d0 d6 0f c8 40 da 8a 08 42 29 21 29 41 2c e1 eb 41
       6.251933 34.135597 10.570596 29.484947
0000e0 a8 c0 19 41 34 10 30 41 7c 02 0b 41 d3 72 c5 40
       9.609535 11.003956 8.688107 6.1702666
0000f0 1e 66 26 41 12 5b a2 41 b8 ee a8 41 f9 62 46 41
       10.399931 20.294468 21.116562 12.399163
